converted_model.tflite (tflite, 611204 bytes, 6 tensors)

sequential/dense_1/BiasAdd/ReadVariableOp f4 [64]
0	0x3dc28753	0.09498467
1	0xbd2df1c1	-0.042466883
2	0x00000000	0.0
3	0xbbc3a52b	-0.0059706173
4	0x3d4701da	0.04858575
5	0x3c8d4478	0.017244563
6	0x3e1ad152	0.15118912
7	0xbc7161da	-0.014732802
8	0xbd482bcb	-0.04886989
9	0x3e298798	0.16555631
10	0x00000000	0.0
11	0xbd1ac01f	-0.037780877
12	0xbc28b640	-0.010297358
13	0x00000000	0.0
14	0x3b881b0b	0.0041536144
15	0x3e152ece	0.14568636
16	0x3d80204b	0.062561594
17	0x00000000	0.0
18	0xbc11ff57	-0.008910975
19	0xbe1f4e12	-0.15557125
20	0xbcc8d8e0	-0.024517477
21	0x3e3e2249	0.18567766
22	0x3e6bcb60	0.230268
23	0xbe0c3801	-0.13693239
24	0x3c22b283	0.009930256
25	0x00000000	0.0
26	0xbcfcbddf	-0.030852256
27	0x3e16cbb8	0.1472615
28	0xbca5ff60	-0.020263374
29	0x3e871d33	0.26389465
30	0x3d23b266	0.039965056
31	0xbd19521b	-0.037431818
32	0xbc3ba964	-0.01145396
33	0xbc40f0b8	-0.011776142
34	0xbaa3f79c	-0.0012509706
35	0x3d697769	0.056998644
36	0xbdb0e914	-0.08638206
37	0xbd9569ee	-0.07295595
38	0xbd4bc3a5	-0.049747128
39	0x3d75ba56	0.059992157
40	0x3d043f10	0.032286704
41	0x3e4666d6	0.19375166
42	0xbd9e7329	-0.07736809
43	0x3cc1428a	0.023591299
44	0xbd264bf1	-0.040599767
45	0x00000000	0.0
46	0xbbf0b8cd	-0.0073462487
47	0xbc290a87	-0.010317451
48	0xbde627b3	-0.11238041
49	0x3e27d453	0.16389589
50	0xbc39a37d	-0.011330483
51	0x3cdcada2	0.026938263
52	0x3bf27fae	0.0074004745
53	0x3e205683	0.15658002
54	0xbdf28daa	-0.118434265
55	0xbe0220e9	-0.12707867
56	0x3dbaf37a	0.09128471
57	0x3d87ebd6	0.06636779
58	0x3dd5bc69	0.10436327
59	0xbc369202	-0.011143209
60	0x3db49914	0.0881826
61	0xbcf53670	-0.029933184
62	0x3df5eb01	0.12007714
63	0x3dc0d810	0.09416211

sequential/dense_2/BiasAdd/ReadVariableOp f4 [2200]
0	0xbc52d330	-0.012867734
1	0xbcef05d1	-0.029177578
2	0xbdaeef7e	-0.08541773
3	0x3ca4d252	0.02011982
4	0x3a8f80e9	0.0010948452
5	0x3d3a3225	0.045457978
6	0xbdb01b52	-0.08598961
7	0xbc3af070	-0.011409864
8	0x3d44c849	0.04804257
9	0x3d8db5c5	0.069194354
10	0x3b389f52	0.0028171134
11	0x3e1d88fe	0.1538429
12	0x3dfd5281	0.12369252
13	0x3e31ae4f	0.1735165
14	0xbd291f98	-0.041289896
15	0x3c00e15b	0.007866229
16	0x3cab3d76	0.02090333
17	0xbe01e5d2	-0.12685326
18	0xbcf929d1	-0.030415447
19	0x3d160581	0.036626343
20	0xbd0b7319	-0.034045313
21	0x3cf914d6	0.030405443
22	0xbccc35c9	-0.02492799
23	0xbcec1cb7	-0.028822286
24	0xbcb04e44	-0.021521695
25	0xbccf9a79	-0.025342213
26	0xbcde7649	-0.027156012
27	0xbcb5aa07	-0.022175802
28	0xbce80590	-0.028322965
29	0xbcc7371c	-0.02431827
30	0xbcb6f2b3	-0.022332525
31	0xbcc4021e	-0.02392679
32	0xbcc983eb	-0.024599036
33	0xbcb07b7f	-0.021543263
34	0xbcd0913d	-0.02545988
35	0xbc9e9e44	-0.019362576
36	0xbce554d6	-0.027994554
37	0xbcec1ff5	-0.028823832
38	0xbcc9b378	-0.02462171
39	0xbcd27b01	-0.025693418
40	0xbccbe281	-0.024888279
41	0xbcd17503	-0.02556849
42	0xbccfded0	-0.0253748
43	0xbcbcec12	-0.023061786
44	0xbcd10eb3	-0.025519704
45	0xbcc65f6e	-0.024215426
46	0xbca6b205	-0.020348558
47	0xbcb7847a	-0.022402037
48	0xbcbae94c	-0.022816323
49	0xbcc44b68	-0.023961738
50	0xbcc14ae1	-0.023595275
51	0xbcd3dd33	-0.025862312
52	0xbcd48892	-0.025944028
53	0xbccc6c98	-0.024954125
54	0xbcc6bd27	-0.024260117
55	0xbcd429d2	-0.025898848
56	0xbcd109b5	-0.025517324
57	0xbcd30979	-0.025761353
58	0xbcb3628d	-0.021897579
59	0xbcc36b83	-0.023854977
60	0xbcd55aa6	-0.026044201
61	0xbce41fae	-0.027847137
62	0xbcac24f1	-0.021013709
63	0xbccb2d39	-0.024801837
64	0xbccc3475	-0.024927357
65	0xbcc44e1a	-0.023963023
66	0xbcd403b8	-0.02588068
67	0xbcb38966	-0.021916103
68	0xbcbe1139	-0.023201572
69	0xbcbcac49	-0.02303137
70	0xbcc87fb8	-0.024474964
71	0xbca1484c	-0.019687794
72	0xbcc93580	-0.024561644
73	0xbcae153e	-0.021250363
74	0xbcd7da97	-0.026349349
75	0xbcdb6e61	-0.026786031
76	0xbccb1cc4	-0.02479399
77	0xbcbf6aab	-0.023366293
78	0xbcb8a862	-0.022541229
79	0xbccc6365	-0.024949739
80	0xbcd671bb	-0.026177278
81	0xbcd5e231	-0.026108833
82	0xbce443a2	-0.027864281
83	0xbcd59f09	-0.02607681
84	0xbce0af32	-0.02742729
85	0xbcd33008	-0.025779739
86	0xbce41485	-0.027841816
87	0xbcbdf784	-0.023189314
88	0xbce46bbb	-0.027883401
89	0xbcb05fa1	-0.021529974
90	0xbcc4c004	-0.024017341
91	0xbcdc37b5	-0.026882032
92	0xbcdd9890	-0.027050287
93	0xbcbdba27	-0.023160053
94	0xbca9671b	-0.020679047
95	0xbcb9aeca	-0.022666354
96	0xbccc861f	-0.024966298
97	0xbcd7b86e	-0.02633306
98	0xbcb77ef2	-0.0223994
99	0xbcbfd6e8	-0.023417905
100	0xbcbe0701	-0.0231967
101	0xbcbba364	-0.02290506
102	0xbcad3b5b	-0.021146467
103	0xbcea51c8	-0.02860345
104	0xbcd8c4a2	-0.02646095
105	0xbcbd5f80	-0.023116827
106	0xbcc2e7a6	-0.0237921
107	0xbcccb44b	-0.024988314
108	0xbcbe3195	-0.023217002
109	0xbcb7e8ef	-0.022449939
110	0xbd008bd5	-0.031383354
111	0xbcf2c508	-0.029634967
112	0xbcb12383	-0.021623379
113	0xbcc05e52	-0.023482475
114	0xbcda49cf	-0.026646523
115	0xbcc746e5	-0.024325797
116	0xbcb635ea	-0.022242505
117	0xbcc7310a	-0.024315376
118	0xbccb4487	-0.02481295
119	0xbcf3a3f4	-0.029741265
120	0xbccc208c	-0.024917863
121	0xbcd76fed	-0.026298488
122	0xbccb6daa	-0.024832565
123	0xbcd4498b	-0.025913974
124	0xbcd819cb	-0.026379487
125	0xbccb5cf1	-0.024824591
126	0xbcce2b99	-0.025167273
127	0xbcaf0194	-0.021363057
128	0xbce0515f	-0.02738255
129	0xbcb94b43	-0.022618895
130	0xbcd70f84	-0.026252516
131	0xbc9fe70a	-0.019519348
132	0xbca817e4	-0.020519204
133	0xbcc316a6	-0.02381451
134	0xbca9fba9	-0.020749884
135	0xbccfe0e3	-0.025375789
136	0xbcd5d208	-0.026101127
137	0xbcbc212b	-0.022965034
138	0xbcc77dcb	-0.024351975
139	0xbcbfbb20	-0.023404658
140	0xbcc54b34	-0.024083711
141	0xbccca364	-0.024980254
142	0xbcd057ac	-0.02543243
143	0xbcf6bb17	-0.030118508
144	0xbcbf521c	-0.023354582
145	0xbce19278	-0.027535662
146	0xbca5f281	-0.020257236
147	0xbcb94e82	-0.022620443
148	0xbcde60b8	-0.027145728
149	0xbcc6c8a2	-0.024265591
150	0xbcf0c067	-0.02938862
151	0xbcba9447	-0.022775782
152	0xbc9bef1b	-0.019034913
153	0xbcd2e968	-0.025746062
154	0xbcdf58b4	-0.027263977
155	0xbcc7f546	-0.024408948
156	0xbcab1c97	-0.020887656
157	0xbcc2e2f0	-0.023789853
158	0xbccecc8d	-0.025244022
159	0xbcbebd99	-0.023283767
160	0xbcb10c45	-0.021612296
161	0xbcbd9d61	-0.023146333
162	0xbcc284e2	-0.023745004
163	0xbce967a1	-0.028491797
164	0xbcd660b0	-0.026169151
165	0xbcae4206	-0.021271717
166	0xbcb39cfd	-0.021925444
167	0xbcc23f86	-0.023711931
168	0xbce1f905	-0.027584562
169	0xbcbb70bf	-0.02288091
170	0xbcd46880	-0.025928736
171	0xbcdd48d2	-0.027012262
172	0xbcb5bedf	-0.022185741
173	0xbc9115bf	-0.017710565
174	0xbcd59551	-0.026072176
175	0xbcd2db52	-0.025739346
176	0xbcc50f32	-0.024055097
177	0xbce47ad4	-0.0278906
178	0xbcb9dfbb	-0.02268969
179	0xbccc22bf	-0.024918912
180	0xbcc32d98	-0.023825452
181	0xbcccfff4	-0.025024392
182	0xbcbb5d82	-0.022871736
183	0xbccecf61	-0.02524537
184	0xbcd2c256	-0.025727432
185	0xbcbea239	-0.023270713
186	0xbcb180bd	-0.021667833
187	0xbcdb845f	-0.026796518
188	0xbccce362	-0.025010768
189	0xbcc41184	-0.023934133
190	0xbcd6d065	-0.026222417
191	0xbcbbb9c5	-0.02291573
192	0xbcc71090	-0.02429989
193	0xbcd4915d	-0.02594822
194	0xbcc97a28	-0.024594381
195	0xbcff7e40	-0.03118813
196	0xbcd3fc8d	-0.025877262
197	0xbcaa82c0	-0.0208143
198	0xbd03cedb	-0.032179695
199	0xbcba9923	-0.0227781
200	0xbcd926fa	-0.026507843
201	0xbcbeac2f	-0.023275463
202	0xbcc5ecfa	-0.02416085
203	0xbccbbd6b	-0.024870595
204	0xbc92410e	-0.017853286
205	0xbcbefc97	-0.023313804
206	0xbcbb073f	-0.022830604
207	0xbcdecae7	-0.02719636
208	0xbce9f5e6	-0.028559636
209	0xbcd84682	-0.026400808
210	0xbce61a2e	-0.028088655
211	0xbcd1fe39	-0.025633918
212	0xbcc83c1b	-0.024442723
213	0xbcb5b53d	-0.022181148
214	0xbce9adef	-0.02852532
215	0xbcda74e5	-0.026667068
216	0xbca0258e	-0.019549157
217	0xbcd0c6dd	-0.02548545
218	0xbcb00e53	-0.021491205
219	0xbcc5f153	-0.024162924
220	0xbcbc9828	-0.023021773
221	0xbcdf5ce5	-0.027265975
222	0xbcc1eb7f	-0.023671864
223	0xbcb8a984	-0.022541769
224	0xbcdd2255	-0.02699391
225	0xbcb9175e	-0.02259415
226	0xbce60d1a	-0.02808242
227	0xbcbfdeb1	-0.023421617
228	0xbc951316	-0.018197577
229	0xbca48c29	-0.020086365
230	0xbcb8d41b	-0.022562077
231	0xbcbefb5b	-0.023313215
232	0xbce2c02f	-0.02767953
233	0xbcb8f428	-0.02257736
234	0xbcda9ba3	-0.026685541
235	0xbcd5e34d	-0.026109362
236	0xbcb5bd75	-0.022185067
237	0xbce86ef6	-0.028373223
238	0xbccb70b8	-0.024834022
239	0xbcbfdd52	-0.023420963
240	0xbcc9e959	-0.024647402
241	0xbcae8089	-0.021301525
242	0xbce266f6	-0.027636986
243	0xbcba5ec6	-0.02275027
244	0xbcc608ef	-0.024174182
245	0xbca96337	-0.020677192
246	0xbcc79900	-0.024364948
247	0xbcc18975	-0.023625115
248	0xbcdfb960	-0.027310073
249	0xbcc76177	-0.024338467
250	0xbca4d7af	-0.020122377
251	0xbcb47f75	-0.022033432
252	0xbcdaa753	-0.026691115
253	0xbcc2610e	-0.02372792
254	0xbcff4f03	-0.031165605
255	0xbcd4a362	-0.025956813

sequential/dense/BiasAdd/ReadVariableOp f4 [128]
0	0x3ccbfb24	0.024900027
1	0xbe1f4bed	-0.15556307
2	0x3e64c335	0.2234009
3	0x3e358379	0.17725934
4	0x00000000	0.0
5	0x3e52ac9e	0.2057366
6	0x3da287e5	0.07936076
7	0xbdf69b0c	-0.120412916
8	0x3dce5f7b	0.10076805
9	0xbd8f9a5c	-0.070118636
10	0xbd93c2b8	-0.07214874
11	0xbbe23e69	-0.0069044125
12	0xbdf51e7a	-0.119687036
13	0xbe5898f8	-0.21152103
14	0x3ce9a262	0.028519813
15	0x3d355cf6	0.044278108
16	0xbdece02c	-0.11566195
17	0x00000000	0.0
18	0x3e65ce18	0.224419
19	0x00000000	0.0
20	0xbe4acc9a	-0.19804612
21	0xbde8fa38	-0.113758504
22	0x3e74bc3b	0.23899929
23	0xbdcaf381	-0.09909726
24	0x3e634f1c	0.22198147
25	0x00000000	0.0
26	0xbdb1bb9b	-0.08678361
27	0xbd5677ee	-0.052360468
28	0x00000000	0.0
29	0x00000000	0.0
30	0x3c1359d2	0.008993583
31	0x00000000	0.0
32	0xbcf8c1c0	-0.030365825
33	0xbdbcd576	-0.09220402
34	0x3cb7f807	0.022457136
35	0xbdafcf3a	-0.08584447
36	0x00000000	0.0
37	0x3c564bca	0.013079593
38	0xbbd7b814	-0.006583223
39	0x00000000	0.0
40	0x00000000	0.0
41	0x00000000	0.0
42	0x3d63b03e	0.055588
43	0x3d2511f0	0.04030031
44	0x3bcfaede	0.0063379845
45	0x3d6a5e9e	0.05721914
46	0x3e508881	0.20364572
47	0x3df7b352	0.120947495
48	0x3ca3cbf7	0.019994719
49	0x3e1936bf	0.1496229
50	0xbd32d0c2	-0.04365612
51	0x00000000	0.0
52	0x00000000	0.0
53	0x3e8596a6	0.26091498
54	0xbdfd7fcf	-0.12377893
55	0x00000000	0.0
56	0x00000000	0.0
57	0x3da5b788	0.080916464
58	0xbca18e42	-0.019721154
59	0xbd0618ce	-0.0327385
60	0x00000000	0.0
61	0xbde03aef	-0.10948741
62	0xbdb799ed	-0.08964906
63	0xbd5b3096	-0.053513132
64	0x3e02d5fc	0.12776941
65	0xbba6fd2d	-0.005096099
66	0xbd986079	-0.07440276
67	0x3e036954	0.12833148
68	0x3df3e676	0.11909191
69	0x3e8a7075	0.27038923
70	0x00000000	0.0
71	0x00000000	0.0
72	0xbe69fb33	-0.22849731
73	0x3e55a6c3	0.20864396
74	0xbade143e	-0.0016943289
75	0xbd9feeed	-0.07809243
76	0x3dae49d4	0.08510175
77	0x3e720cea	0.23637739
78	0x3dba86b1	0.091077216
79	0x00000000	0.0
80	0x3d18806b	0.037231844
81	0x3d0e59fc	0.034753785
82	0xbde276f6	-0.11057846
83	0x3d9309c1	0.07179595
84	0x00000000	0.0
85	0x00000000	0.0
86	0x3e833871	0.25629
87	0x3dbb9ec1	0.09161139
88	0x00000000	0.0
89	0x00000000	0.0
90	0x3e2095df	0.15682171
91	0x3d738dc4	0.05946137
92	0xbbd8c020	-0.0066147
93	0xbd7c70bc	-0.06163095
94	0xbc3288b3	-0.010896849
95	0x3d3586e1	0.044318084
96	0x3d8661d2	0.065616265
97	0xbe0d9742	-0.13827232
98	0xbd23b1fd	-0.039964665
99	0x3e79dbed	0.24400301
100	0xbd59d522	-0.053181775
101	0x3e082daa	0.1329867
102	0xbe55ffee	-0.2089841
103	0xbc97cac7	-0.018529309
104	0x00000000	0.0
105	0x00000000	0.0
106	0xbe531307	-0.20612727
107	0xbc513acc	-0.012770366
108	0x00000000	0.0
109	0xbd9ec84a	-0.07753046
110	0x3cc6ed48	0.024283066
111	0x00000000	0.0
112	0xbdfb0545	-0.122568645
113	0xbc6bab70	-0.014384136
114	0xbda356ab	-0.07975515
115	0xbc9d5e24	-0.019209929
116	0x3d931d8a	0.071833685
117	0x3e7aa1dd	0.24475808
118	0x3e0a38d0	0.13498235
119	0xbc87cc0e	-0.016576793
120	0xbd8f34a5	-0.06992463
121	0xbded5345	-0.11588148
122	0xbc8b3cbc	-0.016996734
123	0xbc108753	-0.008821326
124	0x3e270095	0.16308816
125	0xbe0f0293	-0.13965826
126	0xbd4f6fd0	-0.050643742
127	0x00000000	0.0

sequential/dense/MatMul f4 [128, 7]
0	0x3e242f03	0.16033559
1	0x3e2e4ec4	0.17022234
2	0xbcc8a1a0	-0.024491131
3	0x3dc4b494	0.09604755
4	0xbc5b037d	-0.013367531
5	0x3e613800	0.21994019
6	0xbdc69db1	-0.09698046
7	0xbc760fb8	-0.015018396
8	0x3e71ce3e	0.23613831
9	0xbe1c700d	-0.15277119
10	0xbe1dd5ee	-0.15413639
11	0x3e0abed1	0.13549353
12	0x3ded4824	0.11586025
13	0xbd0b317c	-0.03398274
14	0x3dd21315	0.10257546
15	0x3dcee4c7	0.101022296
16	0xbe197883	-0.14987378
17	0x3eafd7da	0.3434437
18	0x3d6eb676	0.058279477
19	0x3e76751a	0.24068108
20	0xbdbc32b1	-0.09189356
21	0x3e35c91a	0.17752495
22	0x3dcbd327	0.099523835
23	0x3d893e20	0.067013025
24	0x3e654680	0.22390175
25	0xbdcc5f83	-0.09979155
26	0x3e5ece0c	0.21758288
27	0xbe63b994	-0.22238761
28	0xbe083bff	-0.13304137
29	0xbcd8b0e0	-0.026451528
30	0xbe4c7d81	-0.19969751
31	0x3d1ac914	0.03778942
32	0xbdd4f237	-0.10397761
33	0xbe012344	-0.12611109
34	0x3a9c3c80	0.0011919886
35	0xbd77f54c	-0.060536668
36	0xbdee61a7	-0.116397195
37	0x3e460e8d	0.19341488
38	0x3e0e6892	0.13907078
39	0xbe8a6bab	-0.2703527
40	0x3e909894	0.28241408
41	0x3e049083	0.12945752
42	0x3dbd48c1	0.09242392
43	0x3dff564b	0.12467631
44	0xbd0a5297	-0.03377017
45	0x3e47fd9e	0.19530341
46	0x3e068c6c	0.13139504
47	0x3cdb6a67	0.026784135
48	0xbe754bb8	-0.23954666
49	0x3e4956d0	0.19662023
50	0x3e4cdf42	0.20007041
51	0xbe7d9f78	-0.24767864
52	0xbc5b9b75	-0.013403763
53	0x3c17b823	0.00926021
54	0xbe4c56cf	-0.1995499
55	0xbe1ceff7	-0.15325914
56	0x3dde76f9	0.10862536
57	0xbe783bfe	-0.24241635
58	0x3e44bf8c	0.19213694
59	0x3e871f61	0.26391128
60	0x3db01264	0.08597258
61	0x3df71566	0.12064628
62	0x3c2ebd51	0.010665254
63	0x3e53cf7d	0.20684619
64	0xbe3cfccb	-0.18455808
65	0x3da2ba33	0.07945671
66	0x3e253dea	0.161369
67	0x3e2be4fc	0.1678657
68	0xbc935651	-0.017985495
69	0xbe22b221	-0.15888263
70	0xbe011212	-0.1260455
71	0xbd0b84cd	-0.034062196
72	0xbdeefa22	-0.11668803
73	0x3cf65a43	0.030072337
74	0xbe225de4	-0.15856129
75	0xbe3e51e4	-0.18585926
76	0x3e4a5cd3	0.19761972
77	0x3dc149be	0.09437893
78	0x3d052f03	0.032515537
79	0xbdfb9565	-0.12284354
80	0xbe346ec0	-0.17620373
81	0x3b85a4cc	0.004078483
82	0x3d0e845a	0.03479419
83	0xbe420e9e	-0.18950889
84	0x3d9918d0	0.07475436
85	0x3e476df1	0.19475533
86	0x3d956f73	0.07296648
87	0x3d9b39b9	0.07579369
88	0x3d911cc4	0.07085565
89	0x3de41435	0.11136667
90	0x3d676fd6	0.05650314
91	0x3d8a7571	0.067606814
92	0xbd091e81	-0.033476356
93	0x3e280611	0.16408564
94	0xbde6d806	-0.11271672
95	0x3e3236bf	0.17403696
96	0xbdf188fb	-0.11793705
97	0x3e0c79fd	0.1371841
98	0xbac7107b	-0.0015187407
99	0x3b24bf3b	0.0025138396
100	0xbe84a7d1	-0.25909284
101	0x3cfa510e	0.030556228
102	0xbdad2282	-0.084538475
103	0x3cb9e939	0.022694217
104	0x3e48164e	0.19539759
105	0xbde14416	-0.109993145
106	0x3e3f2dc0	0.18669796
107	0x3e4b5b78	0.19859111
108	0x3cb515f1	0.022105189
109	0xbd084262	-0.033266433
110	0x3e830ae7	0.25594255
111	0xbcdedfee	-0.027206387
112	0xbe0f9cff	-0.14024733
113	0xbadb2b97	-0.0016721365
114	0x3c16f153	0.00921281
115	0xbe921f02	-0.28539282
116	0x3d92e93b	0.071733914
117	0xbd9d3316	-0.076757595
118	0x3e3bc4b1	0.1833675
119	0xbe3050a0	-0.17218256
120	0xbcf67e80	-0.030089617
121	0xbd493270	-0.049120367
122	0xbe248650	-0.16066861
123	0xbda4c4ac	-0.08045325
124	0x3cf86cb0	0.030325264
125	0xbd2dbb2c	-0.04241483
126	0x3e13e3eb	0.14442413
127	0xbe1d3907	-0.15353785
128	0xbe286820	-0.1644597
129	0x3e76e4ff	0.24110793
130	0xbd879bef	-0.06621539
131	0x3e038e8c	0.12847346
132	0x3e3392d2	0.17536476
133	0xbde537d5	-0.1119229
134	0xbd8da722	-0.06916644
135	0xbe3979e4	-0.18112904
136	0x3daecf86	0.08535676
137	0xbd8f6568	-0.070017636
138	0xbe4ca616	-0.19985232
139	0xbd2c6f9c	-0.042098626
140	0xbc80fd13	-0.015745675
141	0x3dd6e03d	0.10491989
142	0x3cd48fb1	0.025947424
143	0xbe608982	-0.21927455
144	0x3dcd14df	0.100137465
145	0xbca0a873	-0.019611573
146	0x3b49830b	0.0030748274
147	0x3e39efda	0.18157902
148	0x3e4e892e	0.20169517
149	0x3d8e6acb	0.06953963
150	0xbe44aeb5	-0.1920727
151	0xbdb4ad60	-0.08822131
152	0xbdce540c	-0.100746244
153	0x3cc28829	0.023746567
154	0xbe4ddec1	-0.20104505
155	0x3d620482	0.05518008
156	0x3e639718	0.22225606
157	0x3e9b80ae	0.30371612
158	0xbdb1d0c5	-0.08682398
159	0x3eb4fabb	0.35347542
160	0x3cbb57ec	0.022869073
161	0xbd86cd54	-0.06582132
162	0x3e4d91f4	0.20075208
163	0x3dad1f3c	0.08453223
164	0xbe2dd3cd	-0.16975327
165	0xbde0e3d7	-0.10980957
166	0xbbde297b	-0.006779847
167	0x3d6d3d67	0.057919886
168	0x3e3306c1	0.17483045
169	0x3d84f702	0.064924255
170	0x3e6aa2c1	0.22913648
171	0x3dfe6d6b	0.124232136
172	0xbe4c6b67	-0.19962846
173	0x3e97b3c8	0.2962935
174	0xbd4ede68	-0.050505072
175	0xbe2e4782	-0.17019466
176	0x3daba122	0.08380343
177	0xbd7d132c	-0.06178586
178	0xbe367f3e	-0.17821977
179	0xbc4a1bb0	-0.012335703
180	0xbdcb49de	-0.099261984
181	0xbe1bc7c3	-0.15212922
182	0xbe21848b	-0.15773217
183	0x3e251f9b	0.16125338
184	0xbde4114e	-0.11136113
185	0xbe6a2425	-0.2286535
186	0x3c8372b3	0.016045904
187	0x3d37ceb4	0.04487486
188	0x3e08e619	0.13369025
189	0x3dfe5a4f	0.12419569
190	0xbd439557	-0.047749843
191	0x3cdd1f02	0.026992325
192	0xbd303a6e	-0.043024473
193	0x3e1c6ab2	0.15275076
194	0xbd9da7cb	-0.076980196
195	0x3d23f0ed	0.040024687
196	0x3def3fea	0.116821125
197	0xbbedd0a0	-0.007257536
198	0x3ca7d1e0	0.020485818
199	0xbe2633ab	-0.16230647
200	0xbe039fe3	-0.1285396
201	0x3cd81148	0.026375428
202	0xbe2519dc	-0.16123146
203	0xbcb13240	-0.021630406
204	0xbc369500	-0.011143923
205	0x39ede200	0.00045372546
206	0x3d173d68	0.036923796
207	0xbdfbd698	-0.1229679
208	0x3e57baa9	0.21067299
209	0x3ad3ff80	0.0016174167
210	0x3d231c68	0.039822012
211	0x3d5b3e20	0.053526044
212	0xbe7dd474	-0.24788076
213	0x3e4aefc8	0.19818032
214	0xbd5a5411	-0.05330283
215	0x3d182692	0.03714616
216	0x3e4444a4	0.1916681
217	0x3d2211d4	0.039567783
218	0xbe233328	-0.15937483
219	0x3d80c286	0.062871024
220	0x3d0413b4	0.032245353
221	0xbe5024c0	-0.20326519
222	0xbe4c98ad	-0.19980116
223	0xbcb93fd8	-0.02261345
224	0xbc1cb3e7	-0.009564376
225	0xbd6babb9	-0.057536814
226	0x3e3d59df	0.18491314
227	0xbb42db7a	-0.002973287
228	0x3e0f9b63	0.14024119
229	0xbdbf7e13	-0.093502186
230	0xbadcd2d2	-0.0016847497
231	0x3e3d3072	0.18475512
232	0xbbcc4b04	-0.0062345285
233	0xbe450993	-0.19241934
234	0x3d796b86	0.060893558
235	0xbc379197	-0.011204145
236	0xbde5d347	-0.112219386
237	0x3d2d45e5	0.042302985
238	0xbe3a6909	-0.1820413
239	0x3e019363	0.1265388
240	0x3dddbcb4	0.10827008
241	0x3d2c15eb	0.04201309
242	0xbe374201	-0.17896272
243	0xbda93e57	-0.082638435
244	0xbe283b8e	-0.16428968
245	0xbded9c1a	-0.1160204
246	0xbd3e0c9f	-0.046398755
247	0xbe7bf693	-0.2460578
248	0xbdb25005	-0.08706669
249	0x3c1deed4	0.009639461
250	0x3d734b5a	0.059398033
251	0x3dfe3d74	0.12414065
252	0x3d152db8	0.036420554
253	0xbe486bd3	-0.19572382
254	0xbe2a7b3e	-0.16648576
255	0x3b948e60	0.004533574

sequential/dense_1/MatMul f4 [64, 128]
0	0x3d2309c1	0.039804224
1	0x3dd7daff	0.10539817
2	0xbb2749fa	-0.0025526271
3	0x3d7fd533	0.062459182
4	0x3de570ee	0.1120318
5	0x3df6ea46	0.12056403
6	0x3e0a5668	0.13509524
7	0xbd76d54c	-0.06026201
8	0xbe72affe	-0.23699948
9	0x3d4ad2d7	0.04951748
10	0xbcabd098	-0.020973489
11	0xbdf88440	-0.121346
12	0x3b0e5859	0.002172014
13	0x3d881e3f	0.06646394
14	0xbe174bb2	-0.14774969
15	0x3e7aa92a	0.24478593
16	0x3e16c329	0.14722885
17	0xbd16a668	-0.03677979
18	0xbdb9f1ed	-0.09079347
19	0x3b8021a0	0.0039102584
20	0x3d8405cb	0.064464174
21	0x3c9a4eb0	0.01883635
22	0x3e25eae7	0.1620289
23	0x3e8e02fb	0.2773665
24	0xbd61ee5d	-0.05515896
25	0x3e2ebc0d	0.17063923
26	0xbdf0d11f	-0.11758637
27	0xbd1e201a	-0.038604833
28	0xbe04f8c3	-0.1298552
29	0xb9b19e00	-0.0003387779
30	0xbdb5da48	-0.088795245
31	0xbd85548d	-0.065102674
32	0x3de7b642	0.1131406
33	0xbdd656ed	-0.104657985
34	0xbca5bb01	-0.020230772
35	0xbdc81cfb	-0.097711526
36	0x3e310f45	0.17290981
37	0xbe13baae	-0.14426681
38	0x3e5c4c00	0.21513367
39	0xbb0a5bc0	-0.0021111816
40	0xbc26eb30	-0.010187909
41	0x3dec719a	0.11545105
42	0xbdd502d4	-0.1040093
43	0xbdd3a8d2	-0.10334934
44	0xbe3d72be	-0.18500802
45	0xbe0a719a	-0.13519898
46	0xbe2b168d	-0.16707821
47	0xbd3d206f	-0.04617351
48	0x3cbe68c1	0.02324331
49	0x3e926147	0.28589842
50	0x3d66fdfb	0.05639456
51	0x3e12945d	0.14314409
52	0x3d2242d0	0.0396145
53	0x3e3eebcc	0.18644637
54	0x3e1edacc	0.15513152
55	0x3ca02448	0.01954855
56	0x3b6aa280	0.0035802424
57	0xbd45107f	-0.048111435
58	0xbdea153e	-0.11429833
59	0xbe181ecc	-0.14855498
60	0xbdc82977	-0.09773534
61	0x3db25410	0.0870744
62	0xbd44f039	-0.048080657
63	0xbe3bedd5	-0.18352444
64	0x3d101eeb	0.035185736
65	0xbc2bec48	-0.010493346
66	0xbcf342b5	-0.029694894
67	0x3cabb15a	0.020958591
68	0x3dc8b262	0.09799649
69	0x3e774e34	0.24150926
70	0x3e168615	0.14699586
71	0x3e320157	0.17383324
72	0xbd9639fe	-0.0733528
73	0x3df31658	0.11869496
74	0xbe2aa009	-0.16662611
75	0xbddf4cff	-0.10903358
76	0xbe498f8c	-0.19683665
77	0x3dcab264	0.098973066
78	0x3e6fc926	0.23416576
79	0xbc104f50	-0.008807972
80	0x3e6d2294	0.23157722
81	0x3d7c52f8	0.061602563
82	0xbd1c864e	-0.03821402
83	0x3dd4b226	0.103855416
84	0xbe00b229	-0.12567963
85	0xbd6def3c	-0.05808948
86	0x3d3531e8	0.044237047
87	0xbe486e54	-0.19573337
88	0xbcc23330	-0.023706049
89	0xbe241b36	-0.16026005
90	0xbe1d6d21	-0.1537366
91	0xbddd158e	-0.10795127
92	0x3ea27740	0.31731606
93	0xbd30747f	-0.04307985
94	0x3d648c51	0.05579788
95	0x3e60679e	0.21914527
96	0xbdb5223b	-0.088444196
97	0x38908829	6.891817e-05
98	0x3dac5a1f	0.08415627
99	0x3d976e88	0.07394129
100	0x3e57c175	0.21069892
101	0x3caecee8	0.021338895
102	0xbe1e7522	-0.1547437
103	0x3e1b3706	0.15157709
104	0x3e072c07	0.13200389
105	0xbda698dc	-0.08134624
106	0x3e28bc23	0.16478018
107	0xbd211f9c	-0.039336786
108	0xbe09b59d	-0.13448186
109	0xbdd3b315	-0.103368916
110	0x3e1e7d03	0.15477376
111	0x3abc1480	0.0014349371
112	0xbd9ad052	-0.07559265
113	0xbd060cc7	-0.03272703
114	0xbe0e11b4	-0.1387394
115	0xbe1b2d96	-0.15154108
116	0x3e2857dd	0.16439767
117	0x3d6efea6	0.05834832
118	0x3d19368e	0.037405543
119	0xbd4730c8	-0.048630506
120	0xbe39f5af	-0.18160127
121	0xbe1690c6	-0.14703664
122	0x3de99186	0.114047095
123	0x3c83d9a8	0.016094998
124	0x3da7e60b	0.08198174
125	0x3e18c7f4	0.14920026
126	0xbb8dbd86	-0.0043255715
127	0xbce27e10	-0.027648002
128	0x3dc1da67	0.09465485
129	0x3e56be2e	0.20970985
130	0x3de648c9	0.112443514
131	0xbb0c5917	-0.0021415406
132	0x3d5c237c	0.053744778
133	0x3e26e532	0.16298369
134	0x3df89bbe	0.121390805
135	0xbde407f9	-0.11134333
136	0x3e074dcc	0.13213271
137	0x3daad233	0.083408736
138	0x3be36ec0	0.0069406927
139	0xbe25db4a	-0.16196933
140	0x3df16c55	0.11788241
141	0xbdc61caf	-0.0967344
142	0x3d88ea75	0.06685344
143	0x3ca954a3	0.02067024
144	0x3d61c148	0.055115968
145	0xbe27c61e	-0.1638417
146	0xbdbae00e	-0.09124766
147	0xbdb01d2c	-0.08599314
148	0x3e12f814	0.14352447
149	0x3ca8a4d8	0.020586416
150	0xbd6a46e5	-0.057196517
151	0x3c1a1bd8	0.0094060525
152	0xbe458126	-0.19287547
153	0x3dd0acfe	0.10189246
154	0x3b221219	0.0024730025
155	0xbd5264a1	-0.0513655
156	0xbc255e50	-0.010093287
157	0xbd4d14bc	-0.050068602
158	0xbde678c6	-0.112535045
159	0xbe2f795b	-0.17136137
160	0x3e247f00	0.16064072
161	0xbd0b948d	-0.034077216
162	0xbe75cb0c	-0.24003237
163	0x3e2c707c	0.16839784
164	0xbe307e91	-0.17235781
165	0xbda5336d	-0.08066449
166	0x3d9fb75c	0.07798645
167	0xbe225811	-0.15853907
168	0xbdbba84e	-0.09162961
169	0x3dacedda	0.08443804
170	0x3e284ddd	0.16435952
171	0x3d9cfe06	0.076656386
172	0x3def0849	0.11671502
173	0x3e072272	0.13196734
174	0xbe203e90	-0.15648866
175	0x3dd10e8f	0.10207855
176	0xbdf069ce	-0.11738931
177	0xbd84a137	-0.06476062
178	0x3dc20260	0.09473109
179	0x3b3fea80	0.002928406
180	0x3cdf2410	0.027238876
181	0x3e498ba4	0.19682175
182	0x3db59c9f	0.08867764
183	0xbd777fa4	-0.060424462
184	0x3e21d231	0.15802838
185	0x3df860f6	0.12127869
186	0xbdcb5ad9	-0.09929437
187	0x3e0d0f4a	0.13775364
188	0x3e14f459	0.14546336
189	0xbdea0b7a	-0.1142797
190	0xbd1afd22	-0.037839063
191	0xbe98df49	-0.29857853
192	0xbd79556f	-0.06087249
193	0x3d860434	0.065437704
194	0xbb1ede8b	-0.0024241533
195	0x3e090c80	0.13383675
196	0xbe0b3adc	-0.13596672
197	0xbdac51dd	-0.08414052
198	0xbe25ae79	-0.16179837
199	0xbe1a5252	-0.15070465
200	0xbe167afc	-0.14695352
201	0xbda8eb50	-0.08248007
202	0xbd1fc8c8	-0.03900984
203	0xbdadfc30	-0.084953666
204	0x3d3722eb	0.044711035
205	0x3cb3343e	0.021875497
206	0xbe05d74c	-0.1307041
207	0x3dd9774a	0.10618456
208	0xbb35f521	-0.0027764516
209	0xbd4233c2	-0.04741264
210	0x3dc9c126	0.09851293
211	0xbded1f0d	-0.11578188
212	0xbdb12897	-0.0865032
213	0x3c7af130	0.015316293
214	0x3df01e14	0.11724487
215	0xbdcc5abe	-0.09978245
216	0x3c65e940	0.014032662
217	0x3dc9e846	0.09858756
218	0xbdfa6328	-0.12225944
219	0xbe106a38	-0.14103019
220	0x3e065816	0.1311954
221	0x3d5cbde5	0.053892035
222	0x3cc1affc	0.023643486
223	0xbe154131	-0.1457565
224	0xbd6df133	-0.058091354
225	0x3e47b4d7	0.19502579
226	0x3da57a3d	0.08079956
227	0xbe9e31f3	-0.30897483
228	0x3e6858f8	0.22690189
229	0x3c5a45ca	0.013322303
230	0xbe2cda9e	-0.16880271
231	0xbcbd8b0a	-0.023137588
232	0xbe0d338d	-0.13789196
233	0xbde067b8	-0.10957283
234	0x3dc84f51	0.097807534
235	0xbc972507	-0.018450273
236	0x3d42dfa0	0.047576547
237	0xbd9233ab	-0.07138761
238	0xbe642311	-0.22279002
239	0x3e322b59	0.17399348
240	0x3da4879a	0.080336764
241	0xbe23e79b	-0.16006319
242	0xbc11ca5f	-0.008898347
243	0xbe309bbc	-0.17246908
244	0x3cd53edb	0.026030948
245	0x3caec52b	0.021334251
246	0x3de0492c	0.109514564
247	0xbdb60ffc	-0.088897675
248	0xbd746de1	-0.0596751
249	0xb90228c1	-0.00012412948
250	0x3d4cbb16	0.049983107
251	0xbd48432c	-0.048892185
252	0x3c86e3ab	0.016465982
253	0x3e1afc5a	0.15135327
254	0xbc2eeec5	-0.010677044
255	0x3d5ca378	0.053866833

sequential/dense_2/MatMul f4 [2200, 64]
0	0xbd302734	-0.043006137
1	0x3ccd50df	0.025062976
2	0xbd1c789d	-0.038200963
3	0xbd58a849	-0.052894864
4	0xbdb320ec	-0.08746514
5	0x3d2082ba	0.03918717
6	0x3ccae8c4	0.024769194
7	0xbd96fe67	-0.07372742
8	0x3ccbd936	0.024883848
9	0xbbbd075b	-0.005768699
10	0x3c008a18	0.007845424
11	0x3d66cd98	0.056348413
12	0xbd75530b	-0.05989365
13	0xbd07e57e	-0.033177845
14	0xbd7f9c33	-0.062404823
15	0x3d0ce5f5	0.03439899
16	0x3d7a281f	0.06107342
17	0x399ac480	0.00029519573
18	0xbdf4b001	-0.119476326
19	0xbdca18c8	-0.09868008
20	0xbd3bed5e	-0.045880668
21	0x3c844d28	0.016150072
22	0xbc76e6aa	-0.015069643
23	0xb9030141	-0.000124936
24	0x3dec1fa7	0.11529475
25	0x3c2a25f0	0.010385022
26	0xbc3b71d1	-0.01144071
27	0xbcf1dde6	-0.029524755
28	0xbd1278af	-0.035759624
29	0xbe38b30e	-0.18037054
30	0x3bd46043	0.006481202
31	0x3ccb5d05	0.024824629
32	0xbcb52705	-0.022113333
33	0xbcac8530	-0.021059602
34	0x3b92c231	0.004478716
35	0xbdd9ffc2	-0.10644485
36	0x3af1c4e4	0.0018445519
37	0x3c6dbfbf	0.014511048
38	0x3b9c8b9d	0.0047773854
39	0xbc42618e	-0.011864079
40	0x3d5fb20e	0.054613166
41	0x3d40b734	0.047049716
42	0x3d21dbf8	0.03951642
43	0x3c49586a	0.012289146
44	0x3b0ff137	0.0021963844
45	0xbc4e9430	-0.012608573
46	0xbd147fa5	-0.036254544
47	0x3c65806f	0.014007672
48	0xbc8cc857	-0.017185373
49	0x3c01afe2	0.007915469
50	0x3bcc5f16	0.006236921
51	0x3c1fd2a1	0.009754808
52	0xbd31c937	-0.043404784
53	0x3cfffd29	0.031248646
54	0x3d898e72	0.067166224
55	0x3d42a72b	0.047522705
56	0x3d729447	0.05922344
57	0xbd3b46a4	-0.045721665
58	0xbe068702	-0.13137439
59	0xbdc95c59	-0.09832067
60	0xbd1b7c65	-0.03796043
61	0xbe16a88f	-0.14712738
62	0x3d7b4012	0.0613404
63	0xbd80dbe3	-0.0629194
64	0xbe177fb1	-0.14794804
65	0x3cd5b665	0.026087949
66	0xbc99a184	-0.018753774
67	0xbcec551d	-0.028849179
68	0xbe98bb35	-0.29830328
69	0xbe03db76	-0.12876686
70	0x3d48687e	0.048927777
71	0xbc753757	-0.014966807
72	0x3d9d9482	0.07694341
73	0xbd7b1be0	-0.06130588
74	0xbbc69898	-0.006060671
75	0x3c8a253b	0.016863456
76	0xbccc1cfb	-0.024916163
77	0xbd279544	-0.040913835
78	0xbc8a6d43	-0.016897803
79	0x3cbd89c2	0.023136977
80	0x3c736ac9	0.0148570025
81	0xbcdd082d	-0.026981438
82	0xbbd44cc1	-0.0064788763
83	0xbca94a33	-0.020665264
84	0xbe98ae59	-0.29820517
85	0xbe332428	-0.17494261
86	0xbcacee02	-0.021109585
87	0xbd20699b	-0.039163213
88	0xbdac5690	-0.08414948
89	0x3d3daeb2	0.04630918
90	0x3c023cdc	0.00794908
91	0x3d206546	0.039159082
92	0xbd49f5a8	-0.04930654
93	0xbdfb6b61	-0.1227634
94	0x3d9ed100	0.07754707
95	0xbccfa8a3	-0.025348967
96	0x3ccc03ac	0.024904095
97	0x3c8f9686	0.01752783
98	0x3d44d9a5	0.048059124
99	0xbe1bf810	-0.15231347
100	0x3d4e8954	0.050423935
101	0x3d89aaa0	0.06721997
102	0xbd85a74f	-0.06526052
103	0x3d024c4c	0.031811044
104	0x3da80f79	0.08206076
105	0x39b1422e	0.00033809379
106	0xbd3b1799	-0.0456768
107	0x3d2f4872	0.0427937
108	0x3d4ce075	0.050018746
109	0xbbfb7d20	-0.007674828
110	0x3d2ea262	0.04263533
111	0xbd064063	-0.032776248
112	0x3dce929f	0.100865595
113	0xbd0dfe95	-0.034666616
114	0x3c03ae8a	0.008037219
115	0x3dc439ec	0.0958136
116	0xbe5edea7	-0.21764623
117	0x3d8c0715	0.06837288
118	0xbc8ddc7c	-0.01731705
119	0x3d8d757d	0.06907175
120	0x3d15586d	0.036461283
121	0x3a312096	0.000675687
122	0xbe3ef66b	-0.18648688
123	0x3c3c7f0a	0.011504898
124	0xbddf8624	-0.10914257
125	0xbd933a80	-0.07188892
126	0x3dd8ef80	0.10592556
127	0x3c039b42	0.008032622
128	0xbde20d40	-0.110376835
129	0x3d930bc5	0.07179979
130	0xbd4ff6c1	-0.050772432
131	0x3b5d87e3	0.0033802919
132	0x3d2ec0be	0.042664282
133	0xbc5573cc	-0.013028096
134	0xbd18fb31	-0.03734893
135	0xbc99b8a9	-0.01876481
136	0xbd684db6	-0.056714736
137	0xbc83c70a	-0.01608612
138	0x3b648b10	0.0034872927
139	0xbd5276a5	-0.05138268
140	0x3c90e7b8	0.017688617
141	0xbc095b44	-0.008383576
142	0xbd8a4eff	-0.067533486
143	0x3dc3e4dd	0.095651366
144	0x3cb08687	0.021548523
145	0x3d2c2708	0.04202941
146	0xbbd68b6b	-0.0065473816
147	0xbcf8f3dd	-0.03038972
148	0xbe391682	-0.18074992
149	0xbe17834e	-0.14796183
150	0x3d5de312	0.05417163
151	0xbd0252e8	-0.031817347
152	0xbd188bed	-0.03724282
153	0xbc9cd496	-0.019144338
154	0xbd4340e1	-0.047669295
155	0xbd391b71	-0.045192186
156	0xbcc36bf6	-0.02385519
157	0xbe5c87cf	-0.21536182
158	0x3db01d14	0.08599296
159	0xbd45a796	-0.048255526
160	0xbb0caa73	-0.00214639
161	0x3cbf72d6	0.023370188
162	0x39d34aad	0.00040300694
163	0x3da2c719	0.07948131
164	0x3d3e6789	0.046485458
165	0xbe1c09c1	-0.15238096
166	0x3d803323	0.062597536
167	0x3d12e5b4	0.035863593
168	0xbdb9c503	-0.0907078
169	0x3c98d6b2	0.018657062
170	0xbe09608e	-0.13415739
171	0x3d6ba134	0.057526782
172	0x3d4dd8b1	0.05025548
173	0x3ca1ba04	0.01974202
174	0x3cb01ad1	0.021497162
175	0xbc8af791	-0.016963752
176	0x3bb4c00b	0.0055160574
177	0xbeeb3634	-0.4593979
178	0xbc3efef1	-0.011657462
179	0xbcdc5eff	-0.026900766
180	0x3cf82998	0.030293271
181	0x3dc844f5	0.097787775
182	0xbd77af5e	-0.060469978
183	0x3da3196d	0.07963834
184	0x3d0fea51	0.03513557
185	0xbe520fdf	-0.20513867
186	0xbe19e32a	-0.15028062
187	0x3dabaa1c	0.08382055
188	0x3d4239a2	0.047418244
189	0xbd48ac45	-0.048992414
190	0xbe6274a3	-0.22114806
191	0x3c7e81d9	0.015533888
192	0x3d4f3b20	0.050593495
193	0x3cc9ef13	0.024650132
194	0x3d2d7790	0.04235035
195	0x3ca1e5d8	0.019762918
196	0xbdabec67	-0.083946995
197	0xbe1b6071	-0.15173508
198	0x3d2a4b96	0.04157599
199	0xbd1f1d18	-0.038846105
200	0x3da33162	0.079684034
201	0xbbdeecf3	-0.006803149
202	0xbd2e48e8	-0.042549998
203	0xbd45c39b	-0.048282247
204	0x3d223345	0.039599676
205	0xbba8fea8	-0.0051573105
206	0xbde82d6e	-0.1133679
207	0xbd0ec0da	-0.034851886
208	0x3d38bbd5	0.045101006
209	0xbcac0c94	-0.021002091
210	0xbda9b5fb	-0.08286663
211	0xbc8053f9	-0.015665041
212	0xbc1b8cb6	-0.009493997
213	0xbda6fae4	-0.08153322
214	0x3cbd98c9	0.023144143
215	0xbb845c4f	-0.0040393244
216	0x3cd597aa	0.026073296
217	0xbd3fefd9	-0.046859596
218	0xbcf4f02d	-0.029899681
219	0xbc9b678f	-0.018970279
220	0xbd35690a	-0.044289626
221	0xbd21cf9c	-0.039504632
222	0x3be24e31	0.006906294
223	0xbd1fee1d	-0.039045442
224	0x3ccffa00	0.025387764
225	0xbc8a442d	-0.016878212
226	0xbc6f6a5e	-0.014612762
227	0xbdda21d4	-0.106509835
228	0x3d1fcff9	0.039016698
229	0x3d7397ce	0.059470944
230	0x3b883bbd	0.004157512
231	0x3d617a48	0.055048257
232	0xbd3bc1dc	-0.045839176
233	0x3d69bcd5	0.05706485
234	0xbb1200c6	-0.0022278293
235	0x3d485352	0.048907585
236	0x3c9d3133	0.0191885
237	0xbbb719f8	-0.0055878125
238	0xbc5246eb	-0.012834291
239	0x3bc91c7b	0.0061374283
240	0x3d13150c	0.035908744
241	0xbde479ce	-0.11156045
242	0x3c4d6134	0.012535382
243	0xbda82104	-0.08209422
244	0xbe13a083	-0.14416699
245	0x3cab1622	0.020884577
246	0x3be15a2d	0.006877205
247	0x3d6c7790	0.05773121
248	0xbd08699f	-0.033303853
249	0xbb829e1e	-0.003986134
250	0x3e75ba18	0.2399677
251	0xbdebb9f7	-0.11510079
252	0xbcedf8ea	-0.029049356
253	0xbd5ffda5	-0.054685254
254	0x3d9cd2da	0.07657404
255	0xbc3bc5bd	-0.011460719
